trained_models/xg_cnn.pth (torch, 338973 bytes, 27 tensors)

conv_layer_1.0.weight f4 [16, 2, 3, 3]
00000000: 8a29 d43d 702a 193e 0920 093e 495f b8bd
00000010: ac96 543e ebe4 b63d 96b6 37bc 082e 643d
00000020: c416 0fbe 2cab d23d 5313 693e 841a dabd
00000030: 7c12 693d 570a 373e cdb2 083e 77ca fabd
00000040: a459 2ebd 94ba 1e3e 08ff fb3b 0fbc c03d
00000050: adc2 c63d ee91 383e 7e33 443d e393 43be
00000060: 5e59 2cbe da07 85bd da49 423e aa76 26be
00000070: 906e 52bc cacd 263c e15d a33c 40bf 2e3e
00000080: de33 713e 1e6b 7d3e fd20 b83c 047d f73d
00000090: 9383 553e 71b2 d1bd 99f7 37be 13b9 0c3c
000000a0: 788a fd3d 3f30 1c3c d14a d1bc 197d 08be
000000b0: a47c c33d 6419 8e3d 85b2 2c3d a2f7 3f3e
000000c0: 047d 633e 19c2 78bd 4459 fdbd c45b b9bc
000000d0: d7fc 213d 65ba de3d 727b 543d 5127 babd
000000e0: 32e5 ee3d d5ff 24be aa7a ddbd 3239 2f3e
000000f0: fcf8 a03d 961e eebc 9c7d 7a3e 6180 23be
00000100: c386 c63d fdbc a1bc edf0 35bd 5a1e fdbd
00000110: b64f 48bd 6b4b 0ebe a3c7 ddbd 7bb8 713e
00000120: 14e5 79bd 700b 513e 522a 03be 2374 aebd
00000130: 3f13 b23d 85b9 473e f9e6 223e 0087 c7bd
00000140: e875 523e 649f 1dbe 9632 4b3e 29e1 b8bc
00000150: 69b1 573e a7bb ca3b 403e 613c c8d7 6e3e
00000160: d9b6 f93d dca0 52be ce08 573e cdce 4bbe
00000170: 28d4 32bd 27fa 46be b416 92bd 4035 4ebe
00000180: 9fef 15be c55f a03d 8b48 41be 1d93 fbbd
00000190: 191c 90bd 6620 9ebc f340 31be 23b6 a43d
000001a0: 903b d7bd ab84 71bd 8a45 e03d 9e50 993b
000001b0: a477 4e3e 1244 f33d f41e e1ba 8a71 50be
000001c0: 41ff 5cbc e787 3bbc e2fa 12bd fbe6 8c3d
000001d0: 22e9 c4bd ce61 fdbd 35b5 1abe 9fa0 173e
000001e0: 6c92 0ebd 24d2 52bd fc7e 77bd 8511 a93d
000001f0: d445 e03d 41a4 813d 6415 81bd 8c8f 173d
00000200: abc8 da3b b995 99bc 2c35 b43c 1854 1d3e
00000210: f090 0dbe 8c47 99bd 6873 a53d 0010 b83d
00000220: aaa3 4c3a 6859 41bd d7c2 5d3e 2734 d03b
00000230: ea54 6d3e 1de2 33be 96b4 3b3e 49eb 2f3e
00000240: fe82 043c 8917 36be 6613 7c3e adf7 503e
00000250: cab0 b0bd 4d42 423c 380e f53c 534b fabd
00000260: 466f 50be 2aa9 743b 6f6f 063e 1d99 143e
00000270: ca04 553e 47d1 e7bd 5daa d3bd e211 8cbd
00000280: e337 f83d 7efe 6e3e 48d0 b0bd d13c acbd
00000290: e34d f73d d137 213e 0f20 b9bd 154b ca3c
000002a0: 2c0e e3bd 60fa 24bd bd80 4abe e1ec 35bb
000002b0: 42a6 503e 94a5 183d 391f 08be 3f1c 22be
000002c0: 6f1f 0a3e 2502 d6bd a44d a03d 976d 183e
000002d0: 13e5 05be 087c 963d 3d69 823d e30b b43d
000002e0: 5a87 893d ed11 0d3b 6f52 d7bd 8dd7 cebd
000002f0: bb8c 993c 1300 3bbe aade 35be fb4e 423e
00000300: afba bcbd 86ea 5d3e 0134 4bbe 7e51 d73d
00000310: 7e06 5fbe fe8b 463e ae22 243e 7501 66be
00000320: d040 503e 089e 52be 9fe1 a7bc 3b03 1a3e
00000330: 2c11 603e 77cd 1f3e 008e 86bd fbeb 883c
00000340: 0caf 9e3d 6236 07be 4c0b 823d 0d9d 44be
00000350: 5e26 76be c5af 48be 553b 4bbd 3917 6cbd
00000360: b04b 573e 97c1 22be ea7b 6abe 7691 f0bd
00000370: 90cf ea3d f6c1 53be 1fdf 023e 7234 3abd
00000380: 04ec f0bc 02eb 4e3e 4e13 6e3d ede6 18be
00000390: 9c41 723e ad11 683e fb04 6abd b339 6bbc
000003a0: 08fb 6f3d 20d3 4a3e 41a5 643e 9a05 20be
000003b0: 7565 923d c598 e1bd 48ce a33d 58d3 613e
000003c0: 8a5c 95bd dfa8 33bd 7a35 4abe 1656 bfbd
000003d0: 5adc 553e 28e1 cd3d c279 69be d9a7 26bd
000003e0: 6080 23be 72a7 de3b 7b79 82bd 6996 50be
000003f0: b118 b03d 2f54 c53c bfbe e13c 757b 123e
0.103594854 0.14957595 0.13391127 -0.09002549 0.20760602 0.089303814 -0.0112129655 0.05570796
-0.13973528 0.10286555 0.22761278 -0.10649589 0.056902394 0.17875038 0.13349457 -0.12245648
-0.042565957 0.15500861 0.007690314 0.09410869 0.097051 0.18024418 0.04790067 -0.19099383
-0.16830966 -0.06495638 0.18973485 -0.16256204 -0.012843743 0.0101809 0.019942226 0.17065144
0.23554942 0.24747893 0.022476668 0.12084392 0.20850973 -0.10239113 -0.17965545 0.008589047
0.123799264 0.009532987 -0.02554837 -0.13328971 0.09545258 0.069384366 0.042162437 0.18746808
0.22215658 -0.06073198 -0.12370542 -0.022626765 0.039547767 0.10875396 0.05187554 -0.0908953
0.11664809 -0.16113217 -0.10814412 0.17111662 0.0785999 -0.029067319 0.24461979 -0.15966941
0.096936725 -0.019743437 -0.044419218 -0.12359305 -0.048904143 -0.13895957 -0.10829093 0.2360553
-0.06100948 0.2041452 -0.12809113 -0.08518245 0.08695077 0.19504364 0.15908422 -0.09742546
0.2055279 -0.15392834 0.19843516 -0.022568302 0.2106377 0.0061869207 0.013747752 0.23324502
0.121930785 -0.20569175 0.20999452 -0.19903107 -0.04365936 -0.19431363 -0.071332365 -0.20137501
-0.1464219 0.078307666 -0.18875329 -0.12283919 -0.07036609 -0.019302558 -0.17309932 0.08042552
-0.105094075 -0.058964413 0.109507635 0.0046788 0.20162827 0.11878218 -0.0017175362 -0.20355812
-0.013488592 -0.011445976 -0.03588379 0.068799935 -0.09614779 -0.123721704 -0.15108187 0.14807366
-0.034807608 -0.051469937 -0.060423836 0.08255295 0.10950819 0.06330157 -0.06302908 0.03700213
0.0066767535 -0.018748151 0.02199801 0.1536411 -0.1382482 -0.074843496 0.080786526 0.08987427
0.000780637 -0.047204405 0.21656357 0.0063538733 0.23176923 -0.17566724 0.18330607 0.17179598
0.008087872 -0.17782415 0.24616775 0.20406981 -0.0862747 0.011856628 0.029914007 -0.12221398
-0.20354947 0.0037332275 0.13128446 0.14511533 0.20802608 -0.11319213 -0.103352286 -0.068393484
0.121200345 0.23339269 -0.086334765 -0.08410037 0.120754026 0.15743949 -0.09039318 0.024694005
-0.110866874 -0.04027784 -0.19775672 -0.00277596 0.20375922 0.037267283 -0.1329316 -0.15831088
0.13488553 -0.10449628 0.07827309 0.14885555 -0.13075666 0.07347876 0.06367729 0.0879133
0.067152694 0.0021525577 -0.1051377 -0.10099707 0.018743863 -0.18261747 -0.17760721 0.18975441
-0.092152946 0.21671495 -0.19844057 0.1051359 -0.2177982 0.1938934 0.16028854 -0.22461493
0.20337224 -0.20568097 -0.020493327 0.15040295 0.2188155 0.15605722 -0.06570053 0.016714087
0.07748231 -0.13204339 0.06349811 -0.19200535 -0.24038073 -0.19598301 -0.04961713 -0.057639334
0.21024966 -0.15894161 -0.22898832 -0.117464945 0.11465371 -0.20679459 0.12780426 -0.045460172
-0.029409416 0.20206836 0.05812388 -0.14931841 0.2365784 0.22662993 -0.057133656 -0.014357018
0.05858901 0.198071 0.22328664 -0.15627137 0.07148258 -0.110154666 0.079983294 0.22053277
-0.07293041 -0.04386222 -0.19746962 -0.093425915 0.20884839 0.10052711 -0.22800353 -0.040687416
-0.1596694 0.0067948634 -0.06370827 -0.20369877 0.085984595 0.024087993 0.027556775 0.14304908

conv_layer_1.0.bias f4 [16]
00000000: 092f 133e 448b 643e 92ab 183e 074f 14be
00000010: d1c9 93bd f5d4 6b3d 4378 87bd e608 2e3e
00000020: b69b cbbc 06a8 3dbe 76f5 57be 63e4 54be
00000030: fbbc 29be ce55 553e 0443 6d3e caf4 5abe
0.14373411 0.2231875 0.14909199 -0.14483272 -0.07216228 0.05757614 -0.06614735 0.16995582
-0.024854522 -0.18521127 -0.2108973 -0.20790248 -0.16575997 0.20833513 0.23170096 -0.21382442

conv_layer_1.1.weight f4 [16]
00000000: 7cb3 7f3f fbfb 803f cdea 7f3f 6f8b 7e3f
00000010: a019 7e3f 4e31 803f f283 803f 07ef 7f3f
00000020: 2ce1 803f 4eba 7f3f 5ed6 7f3f 3a5c 7f3f
00000030: c3fc 7e3f 5b0e 803f 1b4a 803f 8500 803f
0.99883246 1.0076898 0.9996765 0.9943151 0.9925785 1.0015047 1.0040267 0.999741
1.0068717 0.99893653 0.99936473 0.997501 0.99604434 1.0004381 1.0022615 1.0000159

conv_layer_1.1.bias f4 [16]
00000000: 5575 0d3b d57d b6ba ddbe b8b7 1ccb 1a3c
00000010: e4e2 d8ba 2969 b43b 6c01 763b b96c e53a
00000020: e566 233b fe9e a93a c0a8 ed3a fcb9 a53b
00000030: 51eb d2ba b204 0db9 2eab ed3a e5f6 deb7
0.0021584828 -0.0013922999 -2.2023387e-05 0.009447839 -0.0016547111 0.0055057 0.0037537469 0.0017503715
0.0024933156 0.001294106 0.0018131956 0.0050575715 -0.0016091858 -0.00013448557 0.001813268 -2.6579432e-05

conv_layer_1.1.running_mean f4 [16]
00000000: ccfe 153e 4f04 663e b120 193e fb15 13be
00000010: 60e2 8dbd 5aac 5a3d a89f 87bd 22a2 2e3e
00000020: 25bf ccbc a332 3fbe 2f56 58be 0d93 53be
00000030: dc97 2abe 2cb4 543e 5e1d 6d3e f9db 5bbe
0.14647979 0.22462581 0.14953877 -0.14363854 -0.06927943 0.053387024 -0.06622249 0.17054036
-0.024993489 -0.1867166 -0.21126626 -0.20661564 -0.16659492 0.20771855 0.23155734 -0.21470632

conv_layer_1.1.running_var f4 [16]
00000000: db28 1439 e200 2138 024c 5237 276a 4538
00000010: cdff 0939 8f6c 9039 6b79 3a37 5048 f537
00000020: 7c7e ae37 1446 3838 f539 2a37 a5eb 4b38
00000030: f3e5 9d38 dc55 0b38 8755 bc37 c9cd a737
0.000141296 3.8386213e-05 1.2534672e-05 4.7067322e-05 0.00013160631 0.00027546703 1.1114734e-05 2.9239949e-05
2.0801315e-05 4.3934284e-05 1.0146284e-05 4.8618433e-05 7.529175e-05 3.3220145e-05 2.2451173e-05 2.0003778e-05

conv_layer_2.0.weight f4 [32, 16, 3, 3]
00000000: 3cd7 8fbc 7843 6abd e2fa 063b ae46 973d
00000010: ba3e c8bc 0738 433d a3d3 12bb fa27 973d
00000020: 3987 f1bc 3acc 1d3d f77b 8a3d 49b4 9e3d
00000030: eaab 84bd b028 8cbd 8339 ac3c 5e72 5dbc
00000040: a7ad bb3c 5448 1fbd 26db 9abb 1267 96bd
00000050: 1371 753d be27 a93b 5370 6bbd c691 563d
00000060: 2011 3fbd 8f20 b5bc 4ca5 0abd 2268 75bc
00000070: e804 ed3c 3619 56bd 5dda 88bd fbfc 7b3c
00000080: 849c 863d 959c ac3d d8ae b93d 69f0 e0b9
00000090: 3f84 8cbd 661d 913d 9644 803c 07c7 953d
000000a0: 2b31 593c d7be 1e3d b39b 803c eaf6 5c3c
000000b0: 4b23 603d 1546 56bd c492 313d 6519 69ba
000000c0: 3804 53bd 0d9a 843d d4fc 193d f3d7 863c
000000d0: 3ba4 a63d d7de 8aba c5e8 4abd 92a5 b3ba
000000e0: dc96 aa3c 8cc9 90bd 3a32 81bd afcf ccbb
000000f0: 2257 90bc 84bc 5ebd 2a15 82bd df4e 703d
00000100: e167 8c3d 7668 11bd 3da8 5c3d 0eca 3a3d
00000110: 00ce a7bd 797a 84bd 51aa a53d 4bb3 873d
00000120: ea42 9e3d d8bd 39bd 9641 f0bc f564 123d
00000130: c4fc d9bc b8bc 4b3d 5ba0 eabc dd26 b9bd
00000140: 8d35 683d 3db2 6e3d 4895 ed3c 45cc deba
00000150: 9ce4 a4bd 3648 8b3d d5d2 a9bd e012 893d
00000160: 3ab3 8dbd ac4e e1bc 48c1 673d 7e62 67bd
00000170: 70dd 6bbd 6dba dfbc eb6c 243d 47f1 6f3d
00000180: 9746 833d 2faa 913d 4992 d7bc 20cf 63bc
00000190: ce73 e73c 823c db3c b073 823d 00db bbbc
000001a0: 41a2 2cbd 553f 893d 09e9 bf3c ae61 c93c
000001b0: 2580 a1bb 8f6d a5bd 07b0 57bd ef33 523d
000001c0: 0218 8f3d b265 53bd 4746 1dbc 8d02 f83c
000001d0: 9865 ffbc b6a8 df3c 14a1 7abd 91a6 e73b
000001e0: dbca 01bd a2c7 07bd 9692 78bd fd4d 5d3d
000001f0: 6cdb 003d 8573 f33c e8b2 833d 61b4 babc
00000200: aff9 323c 142b b03c add2 a23d bbf3 58bd
00000210: 9b00 843d ebaa ff3c 7d88 3dbc 9ed5 fb3c
00000220: f8b3 a6bd 84c7 b53b 5d3c 05bd cda9 7a3d
00000230: 16f4 4b3d dbe3 04bc 7ce4 d8bc e3e0 28bd
00000240: e7bf 713b 0406 adbc 7bb1 9c3c aab3 6d3d
00000250: de56 36bd 2d17 75ba 349f 6dbd 7515 1bbd
00000260: 4c3a 9d3b e2da a63c 3131 773d 7c8e 773c
00000270: 68d1 6f3c 4c2c e93c bbdd 2ebd 3b1e 793d
00000280: a355 fa3c a76b 933d 59bb 923d ad3c 9b3d
00000290: c610 853d 0c70 4ebd 3be4 c43c 1edf e1bc
000002a0: 61bd d43c d66d d63c 1929 173d da8a 90bb
000002b0: 3fd0 393d 9311 39bc 60ef 57bd 1273 9cbd
000002c0: e354 97bd 8b31 7fbd 696b 2fbd 3aad 6a3d
000002d0: fa0c 5bbd 04fb 5abd 9541 56bc 8ba0 b13c
000002e0: 7fdf 893d 056b 08bd 4853 863d e065 09bd
000002f0: 2f5c 0abd eabe 7abb 1794 92bd 49c6 4abd
00000300: d37a 483d d50b 9abd b6f8 273d 583b 09bd
00000310: 077d 49bd 6eb3 1abd c738 9d3c 617f 973d
00000320: 8317 033d 1ea3 a8bc 45fb 1b3d d4c1 553d
00000330: b16e d83c 2256 7fbd c744 76bd 993d d93c
00000340: d035 91bd 32d3 63bd afb5 0b3c 4ee3 55bd
00000350: 3c32 00bd 4bf4 d43c c79b 88bd 6f7e 693d
00000360: 1d2b 96bc 6958 a4bd 5920 46bb 111a dfbc
00000370: cd2b 723d fa0e 8e3d 89bd 2a3d 459b 62bd
00000380: 215b 75bd e962 96bd 6ad2 8abd 8259 f93c
00000390: bee0 7bbb ed9e 763d 4233 a7bc 01ba 973d
000003a0: 13e0 7b3d a117 e0bc 4c1e aebc 564d a6bd
000003b0: 5322 0e3d 8a7f a5bd c1b3 0ebd b323 2fbc
000003c0: 9359 29bd ad25 f43c c92b 5bbd 5a26 9e3d
000003d0: 83ba 91bd 9885 8fbc 8348 88bd 940a 7dbd
000003e0: a14b fcbc 7ba4 01bd e951 923d 4d31 893c
000003f0: fe0c 8ebc 68ae 81bd 53a6 c73c 352c 073d
-0.017558686 -0.05719325 0.0020596315 0.07386528 -0.024443973 0.047660854 -0.0022403977 0.07380672
-0.029483424 0.038524844 0.06761926 0.077492304 -0.064781025 -0.06843698 0.021023517 -0.013516037
0.022909952 -0.038887337 -0.0047258316 -0.07343878 0.05992229 0.0051622083 -0.057480168 0.052385114
-0.04664719 -0.022110252 -0.033849046 -0.0149784405 0.028933004 -0.052270137 -0.066822745 0.015380139
0.06572822 0.08428303 0.09066552 -0.0004290373 -0.068611614 0.070856854 0.015657704 0.07313352
0.013256351 0.038756218 0.015699243 0.013486603 0.054721158 -0.05231293 0.043352857 -0.00088920287
-0.051517695 0.06474695 0.03759463 0.016460394 0.08136793 -0.0010594976 -0.049538393 -0.001370596
0.020823888 -0.07069692 -0.06308408 -0.0062503438 -0.017619673 -0.054379 -0.06351693 0.058668967
0.06855751 -0.035500012 0.053871382 0.04560285 -0.08193588 -0.06468672 0.08089126 0.06625994
0.077276066 -0.045347065 -0.029328149 0.03574081 -0.026609786 0.049740523 -0.028640917 -0.09040616
0.056691695 0.05827545 0.029001847 -0.0016998133 -0.08051416 0.068008825 -0.08292166 0.06693053
-0.069189504 -0.027503334 0.05658081 -0.056490414 -0.057584226 -0.027310574 0.040142935 0.05857971
0.06409948 0.07112538 -0.026314871 -0.013904363 0.028253462 0.02676225 0.06369722 -0.022931576
-0.042146925 0.06701533 0.02342655 0.02458271 -0.004928606 -0.08077537 -0.052658107 0.05131906
0.06987001 -0.051610656 -0.009599275 0.030274654 -0.031176373 0.027302127 -0.061188772 0.007069417
-0.0316876 -0.03314937 -0.06068667 0.054029454 0.031459257 0.02971817 0.06430608 -0.02279109
0.010923787 0.021504916 0.079503395 -0.052966814 0.06445428 0.03120943 -0.011568186 0.030741509
-0.08139795 0.0055474658 -0.03252827 0.06119709 0.049793325 -0.008110966 -0.026476137 -0.041230094
0.0036888064 -0.021121033 0.019127598 0.05803267 -0.044516437 -0.0009349462 -0.058013156 -0.03786226
0.0047982093 0.020368043 0.060349647 0.0151096545 0.014637329 0.028463505 -0.042691927 0.060819846
0.030558413 0.071982674 0.0716464 0.07579932 0.0649734 -0.050399825 0.02403461 -0.02757221
0.02596921 0.02617542 0.03690443 -0.0044110836 0.045364615 -0.011295694 -0.05271852 -0.076391354
-0.07389238 -0.062303107 -0.042827044 0.057294108 -0.053479172 -0.053462043 -0.013077159 0.021682998
0.067320816 -0.033305187 0.065588534 -0.03354442 -0.03377932 -0.0038260766 -0.07157152 -0.049505506
0.04894526 -0.07521788 0.041008674 -0.03350386 -0.0491915 -0.037768774 0.019192113 0.073973425
0.032004844 -0.020585593 0.038081426 0.052186802 0.02641997 -0.062338002 -0.060124185 0.02651863
-0.07090342 -0.055621333 0.008527203 -0.052218728 -0.031297907 0.025995394 -0.06670337 0.057005342
-0.018331105 -0.080246754 -0.0030231683 -0.02723411 0.059123803 0.0693645 0.04168466 -0.055323858
-0.05990136 -0.07343084 -0.067784145 0.030438188 -0.0038433517 0.060210157 -0.020410184 0.07408524
0.06149299 -0.027355017 -0.021254681 -0.081202194 0.034700703 -0.08080967 -0.034839395 -0.010689664
-0.04134519 0.029803121 -0.053508554 0.07722159 -0.071156524 -0.017519757 -0.066544555 -0.061777666
-0.030797781 -0.031651 0.07144529 0.016747141 -0.01734018 -0.063320935 0.024371302 0.033001143

conv_layer_2.0.bias f4 [32]
00000000: b87b a93d e8a0 4bbd f63f f9bc 3a91 9cbd
00000010: 1ba6 0c3d 1389 47bd 4ae3 a13d 56aa 57bc
00000020: e3af 8bbd c876 2ebd 56a1 e73c 06ba 213d
00000030: bb2e 423d 43f8 60bd 4c55 8bbd 308c 853c
00000040: 2e94 573d 30d9 113d 2077 a23c c0ab 67bd
00000050: abaf acba 782b a33d fc7c a8bd d6e6 91bb
00000060: c004 cbbb 5620 423b 6bca b33b 5b52 5ebd
00000070: 50ea 90bd ac74 8c3d b8d2 9f3d 5ec9 93bd
0.082755506 -0.049714 -0.030426007 -0.07644887 0.034338098 -0.04871471 0.0790468 -0.01316317
-0.06820657 -0.042593747 0.028275173 0.039484046 0.047407847 -0.05492426 -0.068033785 0.016302198
0.05263155 0.035607517 0.019832194 -0.056560278 -0.0013174912 0.079672754 -0.08226964 -0.0044525666
-0.0061956346 0.0029621325 0.0054867766 -0.05427776 -0.070759416 0.06858191 0.07803863 -0.07216142

conv_layer_2.1.weight f4 [32]
00000000: 4610 803f ccb8 7f3f 3d00 803f 94c4 7f3f
00000010: 3a1e 803f cdd2 7f3f c5f0 7f3f 64f2 7f3f
00000020: c470 803f a631 7f3f a78c 7f3f 7d01 803f
00000030: bcbb 7f3f f342 803f 111f 803f 5784 7f3f
00000040: bccf 7f3f 48cc 7f3f 082b 7f3f cccd 7f3f
00000050: e303 803f f2fe 7f3f 5124 803f 4205 803f
00000060: 8f73 7f3f 1dac 7f3f b677 803f 0f5c 803f
00000070: 3ee3 7f3f 7cc5 7f3f 9727 803f 2089 803f
1.0004966 0.9989135 1.0000073 0.9990933 1.0009224 0.9993103 0.9997676 0.99979234
1.0034413 0.9968513 0.99823993 1.0000454 0.99895835 1.0020431 1.0009481 0.9981131
0.9992635 0.99921083 0.99675035 0.99923396 1.0001186 0.9999839 1.0011083 1.0001605
0.99785703 0.99872 1.0036533 1.0028094 0.9995612 0.9991071 1.0012082 1.0041847

conv_layer_2.1.bias f4 [32]
00000000: 1a08 35ba ee25 17ba 64e8 0cba e253 d3b8
00000010: d92c 603a f48e b03a 78c6 19bb b789 3aba
00000020: 70e0 703a 42e2 4fb9 ca31 5c39 75c1 e73a
00000030: c69b 663b 3e86 b3ba aaef 07ba 9d03 26ba
00000040: 3f46 8239 61ba 733a 7cc3 59ba b190 bbba
00000050: cd81 ea3a 70d5 70ba 8fff 593b f0d1 ce39
00000060: 0604 6e3a d8a0 1a39 d715 973a 458c 7a3a
00000070: da65 15b9 f8fb e13a c5d1 3b3a f6cb ed3a
-0.0006905809 -0.0005765845 -0.0005375205 -0.000100768884 0.00085516047 0.0013470338 -0.0023464244 -0.0007115858
0.0009188717 -0.00019825346 0.00020999383 0.0017681556 0.0035188063 -0.0013696624 -0.0005185554 -0.0006332936
0.0002484787 0.0009297487 -0.00083070225 -0.0014310089 0.0017891467 -0.0009187078 0.0033263897 0.00039447797
0.0009079579 0.00014746503 0.0011526895 0.0009557645 -0.0001424769 0.001724123 0.0007164742 0.001814245

conv_layer_2.1.running_mean f4 [32]
00000000: 7ba6 a03e c953 40be 0ad9 8dbe 91d7 72be
00000010: 5f7f 873d 4f14 abbd 3537 be3d 9752 0abe
00000020: 8f1b fcbd 8bc6 8abb 1fe9 1e3e b407 cbbd
00000030: 75c4 a53d 09b8 3fbe 332d 6fbe d6f9 263e
00000040: e629 a4bd eff5 ca3e 021d 303d df96 0cbe
00000050: 3bb0 e03d 08db 4fbe 28ab 5fbe 05f4 edbb
00000060: 213e 43be 53f0 d1bd d6a6 eb3c 4e59 89bd
00000070: 6f1c 78be 5457 d93d 054d d5bc ad91 a6bd
0.31377015 -0.18781962 -0.2770465 -0.23715045 0.06616091 -0.08353483 0.09287874 -0.13508068
-0.12309944 -0.004235094 0.15518616 -0.09913579 0.08094112 -0.18722548 -0.23357086 0.16306242
-0.08015804 0.39640757 0.042996414 -0.13729428 0.10971113 -0.20298398 -0.21842635 -0.0072617554
-0.19066669 -0.10250916 0.028766077 -0.06706487 -0.24229597 0.1061236 -0.026037702 -0.08133254

conv_layer_2.1.running_var f4 [32]
00000000: 790a de3e c93d 033e aece 993e fdcf b93e
00000010: fb72 273e bcf7 423e f567 d63d f9a0 ff3d
00000020: a056 f93d 8b51 8b3e b6fc 373e 5a15 523e
00000030: 5737 a23e 2017 ed3d d26f 563e c815 463e
00000040: 6d0c 533e 2e39 093f e1b0 b43e ec7e 0b3e
00000050: b1ae 833e 7d76 1d3f 9f19 5b3e 418e ba3d
00000060: ed81 203e 9e8b 093e a249 053e e84f 1b3e
00000070: f24e 683e 884d d13d 3d48 0d3e a91e a93d
0.43367365 0.12816538 0.30040497 0.36291495 0.16352455 0.19039816 0.10469047 0.12481875
0.121747255 0.2721065 0.17967495 0.20515957 0.31682846 0.11576676 0.20941094 0.19344246
0.20610209 0.53602874 0.35291198 0.13622636 0.25719216 0.61508924 0.21396492 0.09109164
0.15674563 0.13432166 0.1301637 0.151672 0.22686365 0.10219866 0.13797088 0.08257801

conv_layer_3.0.weight f4 [64, 32, 3, 3]
00000000: 38ab 083d c046 d6bc 6d31 49bd 21f7 5abd
00000010: 5a1f 3c3c c8a3 303d a48a c93a 601d ebbb
00000020: 080b 483d 7722 0f3d 02fe 363d 0cd2 013b
00000030: db3d 643d d9da dd3c c07f 053d beaf eb3c
00000040: fee2 dabc 32e0 eb3c 5143 383a 50c8 233d
00000050: dd42 ddbc 04bb 37bd ca7b 153d e35a 4e3c
00000060: f400 c33c b0fa 64bd c017 c73c b40d 12bc
00000070: 0223 7a3c 0c6f abbc 4a7a 50bd 8ee9 563d
00000080: a376 fb3c 4f8b 68bc 9ae5 183c 0b0a 8c3c
00000090: 2b2b bebc b16d 93bc c277 193d f159 d13c
000000a0: 779d 61bc fcb4 f4bc 11bb 023c fe53 b3bb
000000b0: 52de db3c 3aed 20bd 348f 2ebc 8700 543d
000000c0: f00e 6abd 64f1 49bd 1435 5e3d 4c05 013d
000000d0: 4337 c8bb 1a6c 25bb 6bf3 37bd 8119 63bd
000000e0: 601d 57bd c596 0fbd 471b 2cbd af8c 0c3d
000000f0: e92d c7bc d50f 533d 6e3c 14bc 8cc2 e73c
00000100: c4a1 ea3c 244d f13c 8cf8 5a3d 6cca 1b3d
00000110: 764e d03c b626 133d ae42 1e3d eb33 ea3c
00000120: 8771 1ebd 09be 233c 3aa0 403d b8a1 efbb
00000130: 9da4 2b3d 1dc6 37bc 75c4 4e3b 6d21 0d3d
00000140: 2b01 743d a255 cbbc 9d85 00bd d802 1d3b
00000150: b2e8 6a3d 6c59 46bb 2836 153c 3b42 9a3b
00000160: 0f40 763d 70fa 043d 00dd a63c 8b12 65bd
00000170: ae70 0c3d ab40 50bd 5210 27bd 91ac b63c
00000180: 65a0 b3bc 4ee4 2e3d 289d 64bc 4603 67bb
00000190: 95a2 5b3d 94e9 7dbc 0b7f a3bc 6f48 913c
000001a0: c3f3 43bd dec6 62bd 665b 553d 156e 6c3d
000001b0: f7de bcbc 4399 983c f4aa 9bbb 6209 2c3d
000001c0: 7ddd abbb d939 ef3b 5422 acbc cae5 33bd
000001d0: 5553 ae3c 6c21 903c 5e2f 313d 864a 5f3d
000001e0: 314a f6ba 3255 573d ebf0 b83c a224 22bd
000001f0: b223 213d 1d50 d13b d388 753b b509 193d
00000200: f7a0 e3bc 2866 26bd 1456 1abd 59df df3c
00000210: e912 313d 00ec 453d 51c6 cd3c 9712 0d3d
00000220: 5619 08bd 6e19 a7bc 5f93 96bc 6b62 03bd
00000230: 08fb 423d 8139 95bc f0e4 aebc ecb5 7b3b
00000240: 3520 58bd a9c9 60bd 823c 413c 1aaa 2bbd
00000250: 68ca 713c 9efe 67bc 2e9b 09bc f553 c4bc
00000260: 3fdf c0bc 1afd a0bc fd37 503c 48d5 f5bc
00000270: 043c 2a3d 137b 0ebd 1f6c 1fbd b971 093d
00000280: 742e 11bd e3f3 73bd 703c 3dbc f3cf 85bc
00000290: b214 4bbd 3088 5b3d 216c ca3b 10e7 173d
000002a0: 9811 d33c 69f0 423d b74c 5cbd cbf3 0c3d
000002b0: 80b4 c43c eb84 443d 905b 3fbd 05e9 44bd
000002c0: f9b2 b3bc bb25 65bc 3493 20bd 4555 42bd
000002d0: 0bd0 6b3d a2e5 ac3c 0530 91bc 1d65 2cbd
000002e0: ecca 1f3d d313 1a3d 86c8 4dbd eec2 03bd
000002f0: b3ff e1bc 6a15 70bd 9738 88bc 7376 2f3d
00000300: 3cad 0bbd 52f1 8fba f250 babc c95e 5ebd
00000310: 0d61 3bbd 593e 35bc d93d b1bc 4c49 ddbc
00000320: 8f94 593c b320 a43c 2215 f13c cb4f 633c
00000330: eab4 72b8 6157 c6bb 9db1 ccbc 75a0 6dbd
00000340: 93db 73bc 38d8 9bbc 40b8 d836 d17f 17bd
00000350: 2a7d afbb 813d e53c 407f 47bc 2ccb 3abd
00000360: 1aa8 82bc b9b6 c2bc a6f9 69bd f322 1f3d
00000370: 9eda 6e3d 7488 e6bc dcd2 38bd 75f7 133d
00000380: b9e7 57bd dc19 3bbd 7588 713d db8c fabc
00000390: 8b4a 18bc f79a 54bd 8631 303d 3df8 a33c
000003a0: 5a6e 053d 63ec e4bc 07ec ae3c 1a46 94bc
000003b0: accd d73a 5826 1cbd c553 6d3d 0521 fabb
000003c0: f430 783d 7bb7 2abd 12c7 373c 53aa 0fbd
000003d0: 4a5c ef3c 28af 08bd 2fac 32bc 3fe1 823c
000003e0: fcac 433d 307e 503d bd7c 46bd 74eb b6bc
000003f0: 5c3a 63bd 715d 593d 0b64 be3b f05e 743c
0.033366412 -0.026156783 -0.0491194 -0.053458337 0.011482084 0.043124944 0.0015376401 -0.0071751326
0.048838645 0.034944978 0.044675834 0.0019809036 0.055723052 0.027081894 0.032592535 0.028770324
-0.026719566 0.028793428 0.0007029074 0.039985955 -0.027009422 -0.044856086 0.036495008 0.012594911
0.023804165 -0.055903137 0.024303317 -0.0089144 0.015267136 -0.020926975 -0.050897874 0.05246883
0.030696219 -0.01419337 0.009332085 0.017094633 -0.023213943 -0.01799664 0.037467726 0.025555583
-0.013770453 -0.029871456 0.00797917 -0.005472659 0.026839409 -0.039288737 -0.0106542595 0.051758315
-0.05714315 -0.049302474 0.054249838 0.031499192 -0.0061101033 -0.0025241436 -0.044909876 -0.055444244
-0.05251825 -0.035055894 -0.0420182 0.034313854 -0.024313884 0.05152877 -0.009047611 0.02829101
0.028641589 0.029455729 0.05345969 0.03803484 0.025428038 0.03592559 0.03863781 0.02858921
-0.038682487 0.009994038 0.047027804 -0.0073129795 0.041905034 -0.0112166675 0.0031550203 0.034455705
0.059571426 -0.024821106 -0.031377424 0.0023957994 0.05735082 -0.0030265702 0.00910715 0.0047076023
0.060119685 0.0324654 0.020369053 -0.055925887 0.034287147 -0.050842922 -0.04078705 0.022299083
-0.021927068 0.042698197 -0.013953485 -0.0035249754 0.053621847 -0.015497584 -0.01995804 0.017734734
-0.04783989 -0.055365436 0.052089117 0.05772217 -0.023055537 0.018627768 -0.004750604 0.042001136
-0.0052449093 0.007300597 -0.021012463 -0.043920316 0.02127997 0.017594062 0.043258063 0.05451443
-0.0018790421 0.052571483 0.022575816 -0.039585717 0.039340682 0.006387724 0.0037465587 0.037362773
-0.027786715 -0.040624768 -0.037679747 0.02732818 0.043230925 0.04832077 0.025118979 0.034441557
-0.033227287 -0.020397868 -0.018380819 -0.03207628 0.047602683 -0.018215897 -0.0213494 0.0038407994
-0.05276509 -0.054879818 0.011794211 -0.04191027 0.01475773 -0.014159827 -0.008398814 -0.023965815
-0.023543952 -0.019651938 0.012708661 -0.030008927 0.04156114 -0.03478534 -0.03892147 0.03355572
-0.03544469 -0.05955876 -0.011550054 -0.01633451 -0.049580283 0.053596675 0.0061774408 0.037085593
0.025765225 0.047592554 -0.0537841 0.034412187 0.02401185 0.047978323 -0.04671818 -0.048073787
-0.021935927 -0.013986046 -0.039202884 -0.0474446 0.057571452 0.021105591 -0.017723093 -0.042088617
0.03901188 0.037616562 -0.050240062 -0.03216832 -0.027587747 -0.058614172 -0.016628547 0.04283757
-0.034100756 -0.0010981953 -0.022743676 -0.054289613 -0.04574685 -0.011062228 -0.021635937 -0.02701249
0.013280048 0.020035123 0.029429022 0.013874005 -5.7865785e-05 -0.006052897 -0.024987036 -0.058014352
-0.014883894 -0.019024 6.458751e-06 -0.03698713 -0.005355497 0.027983429 -0.012176335 -0.045603916
-0.015949298 -0.02376877 -0.05712285 0.03885169 0.05831396 -0.028141238 -0.045122966 0.036124665
-0.052711222 -0.04567896 0.058968026 -0.030584743 -0.009295116 -0.0519056 0.04301598 0.02001583
0.032575943 -0.02794475 0.021352781 -0.018099833 0.0016464493 -0.038122505 0.057941217 -0.0076333308
0.06059356 -0.041678887 0.011216896 -0.035074543 0.029218812 -0.033370167 -0.01090531 0.015976546
0.047772393 0.05090159 -0.048458803 -0.02232907 -0.055475578 0.05306763 0.005810266 0.014915213

conv_layer_3.0.bias f4 [64]
00000000: d1bf 503d 6437 b5bb 3a23 cc3c a230 ee3c
00000010: 776b 50bd 9f13 7abc bc32 613d 5aff 3e3d
00000020: ab3d 28bd f5b1 17bd 36bb 2fbd 5d3a 83bc
00000030: 4c26 4e3c 5055 1bbd 67d8 f93a 0804 1dbd
00000040: 1dfc 31bd 2c57 463d 87c3 17bd fe0b 5b3d
00000050: 72e0 67bd 8d15 a6bc e4dd 4cbd ab64 e3bc
00000060: c985 09bd 7bde 70bd 0100 d3bb cc2e 0fbd
00000070: feed 3c3d 7404 61bd eaea db3c 08e7 4cbd
00000080: 6b07 bfbc 38d6 563d 422f 65bd 7b3d b1bc
00000090: 4d32 db3c 9ff4 373d 8517 283d f90c 7fbc
000000a0: 7a9c 1cbd c889 273d 840b 253a 9a77 b3bc
000000b0: 5499 603c baf0 4abc 0738 3dbc 54ed 613c
000000c0: 907b e43c 4762 f6bb df2c 34bc 11d3 483d
000000d0: a0a8 28bd 1692 c13c dd40 623d 5807 ab3c
000000e0: e5d4 a6bb 41d5 333d 545b 653d 2370 cb3c
000000f0: 28cb 02bc 8bd1 293d cc96 f03c 654f 5fbd
0.05096418 -0.0055302847 0.024919141 0.029075924 -0.050883736 -0.015263467 0.054980025 0.04663024
-0.041074436 -0.037034947 -0.042903148 -0.01601904 0.012582373 -0.037923157 0.0019061685 -0.038333923
-0.043453325 0.048422977 -0.037051704 0.053478234 -0.056610532 -0.020273948 -0.0500163 -0.027757963
-0.033574853 -0.058805924 -0.0064392095 -0.03495674 0.046125405 -0.054935887 0.026845414 -0.050025016
-0.023318967 0.05245039 -0.05595327 -0.021635761 0.026757384 0.044911023 0.041038055 -0.015567058
-0.038235165 0.040902883 0.00062959665 -0.021907616 0.013708431 -0.012386495 -0.0115490025 0.013789494
0.02789095 -0.00751904 -0.010997026 0.049029414 -0.04117644 0.02362923 0.05523764 0.020877525
-0.005091297 0.043904547 0.0559953 0.024833744 -0.007983007 0.0414596 0.02936878 -0.054519076

conv_layer_3.1.weight f4 [64]
00000000: 240b 803f a707 803f f8f6 7f3f 3985 7f3f
00000010: ad1e 803f 9bbb 7f3f 0e4e 7f3f 8ace 7f3f
00000020: 9415 803f cb80 7f3f 29a9 7f3f d5a7 7f3f
00000030: 3108 803f 2e5b 803f a128 803f a1c4 7f3f
00000040: 6332 803f 49af 7f3f c331 803f e9ae 7f3f
00000050: 22b0 7f3f 5b31 803f d48b 7f3f 542e 803f
00000060: 6d17 803f b24d 803f c901 803f eacd 7f3f
00000070: 87df 7f3f 1816 803f b20b 803f f422 803f
00000080: 61df 7f3f fcc9 7f3f c865 7f3f ce10 803f
00000090: 6719 803f b3e7 7f3f bb06 803f 58f4 7f3f
000000a0: 4bec 7f3f 1428 803f 8330 803f 97e9 7f3f
000000b0: cbd1 7f3f 0757 7f3f f4e1 7f3f 03a3 7f3f
000000c0: fbc1 7f3f e95c 803f 82af 7f3f 8c0c 803f
000000d0: b8a5 7f3f c762 803f 027b 7f3f 18d4 7f3f
000000e0: 2e98 803f c024 803f 666b 7f3f 66aa 7f3f
000000f0: 3e09 803f 1ee5 7f3f ed3a 803f 6763 803f
1.00034 1.0002335 0.9998622 0.99812657 1.0009362 0.9989564 0.99728477 0.9992453
1.0006585 0.998059 0.9986749 0.99865466 1.00025 1.0027826 1.0012399 0.99909407
1.0015377 0.9987684 1.0015186 0.99876267 0.9987813 1.0015062 0.99822736 1.0014138
1.0007149 1.0023711 1.0000545 0.99923575 0.9995045 1.0006742 1.0003569 1.0010667
0.99950224 0.9991758 0.9976468 1.0005128 1.0007752 0.9996292 1.0002054 0.99982214
0.9996993 1.0012231 1.0014805 0.99965805 0.99929494 0.9974217 0.9995415 0.9985811
0.99905366 1.0028354 0.9987718 1.0003829 0.9986224 1.0030144 0.9979707 0.99933004
1.0046442 1.0011215 0.9977325 0.9986938 1.000282 0.9995898 1.0017983 1.0030335

conv_layer_3.1.bias f4 [64]
00000000: 693f cab8 b625 49b8 e466 913a 80b2 6fba
00000010: 78c3 d939 20d9 c2ba c5c2 90ba 1196 96b8
00000020: 09ec 2539 5c1b 1cba 9d10 ee38 6f0c 92ba
00000030: 33dd 983a 386a 803a fc97 72ba 2f52 dbb9
00000040: 15c9 10ba 7962 d3b9 2153 c43a 1fba cb39
00000050: 85d5 f4b9 201e 893a 29fc 42bb 7391 2b3a
00000060: 2787 18b9 403c 373a b22b dfb7 3bd0 ccb7
00000070: 9ef5 c0b9 092e 7f3a 6c64 f6b7 234a b43a
00000080: ac58 13b9 e587 7c3a 8dcc 4fb8 e0f0 333b
00000090: e77d 3e3b 3398 18ba 7d8d a0b7 dc96 24ba
000000a0: 42ad b3b9 58e5 c83a c99d 473b 0c73 06bb
000000b0: 3750 1aba 6886 e739 7516 bbb9 8fd7 01ba
000000c0: a77d 1cba 4dc0 07b9 384d ceb9 abab ca39
000000d0: e148 51ba 7e15 6e35 89b8 85b9 9bd8 bbb9
000000e0: 470f 983a 1e5a 4bba a75c c5ba 9771 b03a
000000f0: 769e 6ab8 0e6e d5ba a2fa 8cba 1963 0c3b
-9.643922e-05 -4.7957255e-05 0.0011093286 -0.0009143725 0.000415351 -0.0014865734 -0.0011044374 -7.1805094e-05
0.00015823556 -0.00059550046 0.00011351819 -0.0011142622 0.0011662602 0.0009797281 -0.0009254215 -0.00041832167
-0.00055231276 -0.00040318424 0.0014978388 0.00038857848 -0.0004669839 0.0010461248 -0.002975235 0.0006544806
-0.00014546198 0.0006989874 -2.6604019e-05 -2.441566e-05 -0.00036804093 0.0009734338 -2.9372248e-05 0.0013755005
-0.00014052045 0.0009633287 -4.954315e-05 0.0027456805 0.0029066743 -0.00058210193 -1.9139372e-05 -0.00062785833
-0.00034270628 0.0015327139 0.0030459038 -0.002051535 -0.0005886587 0.00044159894 -0.0003568415 -0.000495308
-0.00059696514 -0.00012946241 -0.00039348914 0.00038656345 -0.0007983577 8.8693184e-07 -0.00025505226 -0.00035828803
0.0011601233 -0.0007757264 -0.001505752 0.0013461587 -5.5937526e-05 -0.0016283409 -0.0010755847 0.0021421371

conv_layer_3.1.running_mean f4 [64]
00000000: 2fdd d33c 75fe b63e 835f ff3e 952e 133d
00000010: 49ff 0abf 0e27 783e 4503 253d bd40 853d
00000020: 3ec0 1fbf 30c6 eebe 2d51 08be ecc2 a43e
00000030: 4c56 c23e ec42 813c 976d 093f 10ed a7be
00000040: 3c92 9dbe a5d3 8fbd 5c43 133e c823 e1bd
00000050: 9bf4 6dbd db4a 503e bd33 533e dc7b e1be
00000060: 9809 c7be f59c b8be 0f00 d6be bc72 80be
00000070: 132e 0dbf 3b74 9ebe 9fef 97be e348 bd3e
00000080: 5312 47be 9c1a 89bc 07a7 f5be 214a 213e
00000090: 76b9 ddbe aacc 2bbd 7c5c 393c 6943 33bd
000000a0: 260d 13bf 0bef 1b3f 4624 de3d bacc 213b
000000b0: 8b07 f6be 6ecf 51be bfdd 09bf f547 94be
000000c0: bf8e 87be c1d2 5a3e 31da 483e 7698 c03e
000000d0: f8c3 3cbf 596d ecbd 24b4 093f 0204 0fbf
000000e0: 9354 a73e 6251 53be de83 45be 0ba7 93bd
000000f0: 30e8 47be 585c 583e 8f81 e93e 063f 4abe
0.025862304 0.3574101 0.49877557 0.035933096 -0.54295784 0.24233648 0.04028632 0.065064885
-0.62402713 -0.4663558 -0.13312216 0.32179964 0.37956464 0.015778981 0.53682846 -0.32798052
-0.3077563 -0.0702279 0.14381164 -0.10993153 -0.058094602 0.20341055 0.20625205 -0.4403981
-0.38874507 -0.3605725 -0.4179692 -0.25087535 -0.5514843 -0.30948052 -0.29675004 0.3696967
-0.19440584 -0.016736321 -0.47978994 0.15750934 -0.43305558 -0.04194323 0.011313554 -0.04376546
-0.5744194 0.60911626 0.10846762 0.0024688677 -0.4805263 -0.20489284 -0.5385398 -0.2896115
-0.26476094 0.21369459 0.19614483 0.37616318 -0.73736525 -0.11544294 0.537905 -0.5586549
0.32681713 -0.20636514 -0.19288585 -0.07209595 -0.19522166 0.21128976 0.45606658 -0.19750604

conv_layer_3.1.running_var f4 [64]
00000000: de14 7a3e 240c b83e d3c8 cf3e abe2 303e
00000010: 20a7 2c3f 93d9 013e c40d 3b3e 94b6 d63d
00000020: b176 803e 80d7 b33e df87 7e3e 8f39 873e
00000030: aea5 733e 5d35 b63d 5c1f fc3e 61ff a43e
00000040: e90e 863e 2c4f 553e 5c15 263e 60a7 cd3e
00000050: 3931 a13d 208d 593e 406f b73e a3de 723e
00000060: e78e 973e 5ddb 643e 1e6d e43e f4ff 943e
00000070: 73f8 023f ecc2 003f 1f37 833e 9a3c a13e
00000080: 533e 3b3e b810 c03e 9a3d 023f 3170 5c3e
00000090: 5a38 af3e b714 613e c50f 943e 0572 993e
000000a0: a237 223f fc62 0d3f c7a7 333e f137 4b3e
000000b0: 8409 653e a2cf 293e 18d5 f03e aaa5 de3e
000000c0: a190 543e b6c3 393e 06ef 703e 4e48 e63e
000000d0: 6adc 2f3f 5161 373e cd58 873e 071a cd3e
000000e0: a8c9 353e d74c 6b3e 2da3 573e 6493 283e
000000f0: b70f ae3e 41d9 1f3e 30b2 b23e 65a1 6e3e
0.24422023 0.35946763 0.40582904 0.17273967 0.6744251 0.12680654 0.1826697 0.10484043
0.25090554 0.3512535 0.24856518 0.264111 0.2379367 0.08896897 0.49242675 0.3222609
0.2618325 0.20830983 0.16219085 0.4016676 0.078707166 0.21245241 0.35827065 0.23717742
0.29601213 0.22349305 0.446145 0.29101527 0.51160353 0.5029743 0.25627992 0.31491548
0.18285494 0.37512755 0.50875247 0.21527173 0.3422268 0.21980558 0.2891828 0.29969802
0.6336614 0.55229163 0.1754447 0.19845559 0.22366911 0.16583112 0.47037578 0.43485767
0.20758297 0.18141064 0.2352868 0.4497704 0.686957 0.17908217 0.26434937 0.4005892
0.17752707 0.22978531 0.2105834 0.16462475 0.33996364 0.1561022 0.3490157 0.23303755

conv_layer_4.0.weight f4 [128, 64, 1, 1]
00000000: d8f3 e0bd 68f0 ab3c 4bb9 c73d 8745 ca3d
00000010: 7e55 ccbc bad7 cf3d 8e66 4a3d cb5e e23d
00000020: fb9c efbc 400a d83d f377 983d f678 b7bd
00000030: 5efb b7bd 7d19 20bd d3a1 0b3d d791 c3bc
00000040: b9cf a1bc 1b27 c9bd 419e 923d 93af eebd
00000050: 8716 13bd b58a 3bbd fc1a f73c d111 2b3d
00000060: 002a 6abd 0f76 88bd 6f53 49bd a3dc febc
00000070: c18b bf3d fbb3 b53d 978e 7c3d 1d93 a3bd
00000080: 2552 1cbd a99d ce3d 8956 e73d 94c9 003e
00000090: a501 f03d 2d93 28bd 94c0 18bd 97e5 cebd
000000a0: e8f6 c73d d6dd 8bbc 8f5b 563d 4930 f4bd
000000b0: e476 fb3d 358b c83c be9b ca3b 40bf 783c
000000c0: ed7a 763d 45fd 433d 0e46 41bc 16b7 9a3d
000000d0: e2ef d43c 4f38 cb3d f2d8 eabd 28fe 76bd
000000e0: 392d c6bd 01c4 dfba 3d2a 19bd 8c5b 27bd
000000f0: fe79 d8bd eba1 e93c 2242 833d 2160 05bd
00000100: c4dd 123d ec38 dd3d af48 183c d96a d63d
00000110: 4609 78bd 5ee4 a33d 5af6 863d f76a 1cbd
00000120: cb0b c23d 71d0 4a3b e974 b63d dcac 93bb
00000130: d40c b83d 02ef c7bd 8faf 91bd b425 b8bd
00000140: fdb4 7f3c 43cc 91bd bbef cbbd 3e08 c7bd
00000150: c2de 71bd 856e 14bd 1b2d 37bd 33a7 9b3d
00000160: 134a c8bd 5691 b3bd f584 833d be13 853d
00000170: 6e18 08bd 2673 78bd 9550 fd3d 9017 72bd
00000180: 95a2 953d 20ff 7e3d 3d1b b73d f0bd 0ebb
00000190: c45b 943d e1c8 cbbd 7cef 46bb 8616 283c
000001a0: 8539 0b3c 4695 9bbd 62c9 4e3d 5579 5f3d
000001b0: 9d57 32bd 17f4 a9bd 0d3d f1bd f0d5 9bbc
000001c0: 50e8 9ebd cece d0bd 0fd5 833d d785 13bc
000001d0: a937 5bbd 4c00 883b d951 bfbd 1485 4dbd
000001e0: 52e4 1a3d 8788 8b3d df34 193d 3b55 e5bd
000001f0: 6bbe bdbd 5f14 ecbd ad52 1ebd 839c 24bc
00000200: 1163 4c3c d872 8f3d d782 80bd cd78 c1bd
00000210: 739e a4bc d45c ffbd 9e70 e0bd 1737 e33c
00000220: 0e71 c83d b467 0bbd c53d e93d 1f02 35bd
00000230: 6690 bebd f5a9 f03d ffd5 f63c 53d6 593d
00000240: 4936 9fbd 94f5 d8bd 39b9 32bc 09e1 833d
00000250: 5f0b 9fbd 94bc c6bd 4146 adbd a482 8d3d
00000260: 0729 f5bd a4f8 debd 667a 5d3d dd8c 7abd
00000270: 2001 9fbc 621d ce3d 47d0 20bd 5b79 d4ba
00000280: afac 43bd ab6c 1b3d 06be 6f3d d8d0 1c3b
00000290: 00c4 ed3d 2b2e c93d 9e4f 893d 641a 1bbd
000002a0: 6ed3 873c 0013 9ebc 81a7 26bc f56b 803d
000002b0: 0693 cd3d e56b cc3d ecd6 943d 121d bb3d
000002c0: c58d f53d 0004 10bd d12a 8bbc 0e96 8fbd
000002d0: 923c 52bd 4038 103d acd6 d43d 7844 5dbd
000002e0: 338b c73d 08da cd3d 52b8 77bd caaa d33d
000002f0: dbe2 e83d 597b c1bd fb37 c83d 0842 ed3d
00000300: 7148 8e3d de86 9bbc d66f 59bc a362 f7bd
00000310: d186 9ebd 3de6 bf3b cdd1 fbbd b3cb b53d
00000320: 4edb fb3c 38b6 d6bd 1efd 32bd 14db cbbc
00000330: 6120 143d 42cc e73c aaf1 f43c 8970 1f3c
00000340: 18af 973d a57f 853d 4187 c03d 974e 353d
00000350: dd7c e83c 0a79 d33d 5738 00bc 22bf a7bd
00000360: b6b8 96bd 2143 3b3c 5562 59bc 7fb7 a13c
00000370: 6f24 803d ef7c cbbd afc9 c1bd 8e72 083d
00000380: 07d8 3abc 5c8b ab3d 7db4 b73b 18dc 8fbd
00000390: a2f4 f83d e88b 25bc dab9 8f3d 6231 ca3d
000003a0: d735 25bc 06d2 f3bd df99 b3bd 4651 493c
000003b0: 173b 243a 507f 583d 4baa 94bd c0c3 ec3d
000003c0: d253 763d a1fe d63d 6eee bfbd ea0a a03a
000003d0: 4548 e23d 3559 70bd 94ea 813d 5968 343d
000003e0: a87c 503d 510f a4bd 6243 913d 837e a03d
000003f0: d5a3 9e3d 2a14 943d b35f dbbd 488c 463d
-0.109840095 0.020988658 0.09752139 0.098765425 -0.02494311 0.101485685 0.04941421 0.110532366
-0.029249659 0.1054883 0.074447535 -0.08958618 -0.08983491 -0.039086808 0.034089874 -0.023873253
-0.01975237 -0.09821912 0.07159091 -0.11654582 -0.035910156 -0.04578658 0.030164234 0.041765038
-0.05716896 -0.06663143 -0.049151834 -0.031111067 0.09352828 0.08872219 0.06165942 -0.07987044
-0.038164277 0.10088665 0.11295802 0.12576896 0.11719064 -0.041155983 -0.03729303 -0.101023845
0.097638905 -0.017073553 0.05233341 -0.11923272 0.12278536 0.024480442 0.0061831167 0.015182316
0.060175825 0.04784896 -0.0117964875 0.07554452 0.025993291 0.099228494 -0.1146716 -0.060300976
-0.09676594 -0.0017071964 -0.037393797 -0.04085879 -0.10570143 0.028519591 0.06409098 -0.03256238
0.035856023 0.108018726 0.009294673 0.10469598 -0.06055572 0.08002542 0.065899566 -0.038187947
0.094749056 0.0030946995 0.089090176 -0.0045066904 0.08986822 -0.09762384 -0.07113563 -0.08991566
0.015607116 -0.07119038 -0.09957834 -0.09718369 -0.05905033 -0.036238212 -0.04472075 0.0760025
-0.097797535 -0.08767955 0.06421844 0.06497906 -0.033226423 -0.06065669 0.123688854 -0.059104502
0.07306401 0.062255025 0.08940742 -0.0021780692 0.072440654 -0.09950424 -0.0030355146 0.010259276
0.0084976 -0.07596831 0.050485022 0.05455907 -0.043540586 -0.082985096 -0.11779223 -0.019022912
-0.07759154 -0.10195695 0.06437122 -0.009004078 -0.05351988 0.004150426 -0.09341783 -0.05017574
0.0378154 0.0681315 0.037403937 -0.11197897 -0.09264835 -0.11527323 -0.038653065 -0.010047081
0.012474791 0.070043266 -0.06274956 -0.09446869 -0.020095086 -0.124688774 -0.1095898 0.02773623
0.097871885 -0.034034446 0.11388735 -0.044191476 -0.093048856 0.11751167 0.030131338 0.05318291
-0.07774026 -0.10593715 -0.010908418 0.064394064 -0.07765841 -0.09703937 -0.084606655 0.06909683
-0.11970716 -0.10887268 0.054071806 -0.061169494 -0.019409716 0.10064198 -0.03926113 -0.0016210483
-0.047772106 0.03794543 0.05853083 0.0023928192 0.1160965 0.09823259 0.06704639 -0.037866965
0.01658031 -0.01929617 -0.010171772 0.06270591 0.10037808 0.09981517 0.072675556 0.09136404
0.11989931 -0.035160065 -0.01698819 -0.070110425 -0.051327296 0.035209894 0.10392508 -0.054020375
0.09743347 0.10051352 -0.060478516 0.1033531 0.11371394 -0.09447355 0.097763024 0.1158486
0.06947411 -0.018985208 -0.013271293 -0.1207936 -0.07740558 0.005856304 -0.12295876 0.08876743
0.030744221 -0.10483974 -0.043698423 -0.024884738 0.03616369 0.02829564 0.02990039 0.00973142
0.07406443 0.06518487 0.09400798 0.044264402 0.028379852 0.10325821 -0.007825932 -0.081907526
-0.073594496 0.011429579 -0.013268073 0.019740818 0.06256949 -0.099359386 -0.09462296 0.033312373
-0.011404044 0.0837619 0.0056062327 -0.070244014 0.12156035 -0.010104157 0.0701787 0.098727
-0.010083637 -0.11905293 -0.08769583 0.0122874435 0.00062649086 0.05285579 -0.07259043 0.11560774
0.06013853 0.10497785 -0.09371649 0.0012210284 0.110489406 -0.058678824 0.0634357 0.044044826
0.05090013 -0.08010734 0.070929304 0.0783663 0.07746092 0.072304085 -0.107116126 0.048473626

conv_layer_4.0.bias f4 [128]
00000000: 24da c33d 822f 86bd 2e2a f03d 4c07 39bd
00000010: 0029 70bd 1cbb 4a3d c42d a3bd f22f c03d
00000020: 00ab dd3a 7076 1c3c ba8d c03d 04ef 423d
00000030: 9445 3cbd 6863 fabd 24d0 453d ecf2 953d
00000040: 405c f93d e420 9f3d 9009 f6bc 40d4 cd3b
00000050: ceda cebd 4c84 c3bd 50e2 adbd 54b9 45bd
00000060: 2830 d13d 88b4 b23d 16ac b8bd 18a0 373d
00000070: 90d4 30bd 6c4a e2bd dcb1 3dbd a67e e2bd
00000080: 40fc 4a3d f079 c0bd e053 ab3d 1cf5 003d
00000090: 0003 ac3a 7eb9 f3bd 6e35 f7bd e45c c7bd
000000a0: 70fd b1bd 729e e8bd ac62 01bd 2049 0ebd
000000b0: 087c dabd 0651 85bd b03b dabc f45f b4bd
000000c0: 4463 e1bd 6847 3cbd f082 afbd 3ee7 f8bd
000000d0: 0836 c0bd b8b1 e0bd 2e56 b0bd 0ad7 c43d
000000e0: 90d6 a33c 0642 98bd 0406 2d3d 18a1 0cbd
000000f0: 5ac9 d7bd 0ea0 963d 4818 ecbc e0cc c43d
00000100: ee86 a83d 70ba 923d 3edf e4bd e8dd e43c
00000110: 9017 6d3d 68aa 6bbd dca9 463d 20bc ecbb
00000120: d6af ed3d a47d 0dbd f899 b1bd 3037 81bd
00000130: 6a65 dfbd a206 cf3d b44a 8cbd 50fe 7a3d
00000140: 40b5 c2bb 0a0d e33d 3cf1 80bd 0858 a63d
00000150: 927a a83d 80de fb3c 4eaf fb3d 80e4 a6bb
00000160: 0e51 8d3d 5c63 27bd 7cb7 a63d 8076 57bc
00000170: 36e1 9ebd d89c 8bbc 786f a13c 80d5 5abc
00000180: d295 dd3d e0ac 933d 401e 453d a0c1 f53d
00000190: c066 0f3d 7ef3 a13d 9806 d4bc d0d7 6d3d
000001a0: a280 fbbd 807a 30bd 081a 91bd 7019 bd3c
000001b0: 682e c03d c0c9 7c3c e06d 823b 3a62 ccbd
000001c0: ba76 a13d 205d d83b 8eab f93d 286a 84bd
000001d0: 8c5e 86bd c46a c53d 0a83 a83d 3805 d73c
000001e0: 30f8 02bc 1467 f83d 4853 e3bc 10e0 9dbc
000001f0: 5412 49bd 1042 d4bc a841 e9bc f8e8 b03d
0.095630914 -0.0655203 0.11726795 -0.045172974 -0.05863285 0.049494848 -0.079677135 0.09384145
0.0016911924 0.009549722 0.09402032 0.047591224 -0.045964792 -0.122259915 0.0482942 0.07321724
0.121757984 0.07769945 -0.030033857 0.0062814057 -0.101003274 -0.09546718 -0.08490431 -0.048272446
0.10214263 0.0872584 -0.09017198 0.04483041 -0.043171465 -0.11049351 -0.046312198 -0.110593125
0.04955697 -0.09398258 0.08365607 0.031483755 0.0013123453 -0.11900614 -0.12070738 -0.09734514
-0.086909175 -0.11358346 -0.03158824 -0.034737706 -0.10668188 -0.065095946 -0.02663979 -0.08807364
-0.110052615 -0.045966536 -0.08569896 -0.12153481 -0.09385306 -0.10971397 -0.086101875 0.09611328
0.019999772 -0.07434468 0.042242065 -0.03433332 -0.10536452 0.07354747 -0.028820172 0.09609389
0.08228861 0.071644664 -0.111753926 0.027937844 0.0578838 -0.05753556 0.048501834 -0.0072245747
0.11605804 -0.03454365 -0.08671945 -0.06309354 -0.10908015 0.10108687 -0.06850186 0.061277688
-0.005942017 0.110864714 -0.06296012 0.081222594 0.082265034 0.030745745 0.12289296 -0.0050931573
0.069002256 -0.04086624 0.081404656 -0.013150811 -0.07757799 -0.017042562 0.019706473 -0.013356566
0.108195916 0.07210708 0.04812455 0.11999822 0.0350101 0.079077706 -0.02588205 0.058067143
-0.12280394 -0.043085575 -0.07085043 0.023083419 0.09383851 0.01542896 0.0039803833 -0.09979673
0.078839734 0.0066028982 0.121909246 -0.0646556 -0.06561002 0.096395046 0.08228119 0.026247606
-0.007993743 0.121290356 -0.027749673 -0.01927188 -0.049089745 -0.025910407 -0.02847369 0.08638185

conv_layer_4.1.weight f4 [128]
00000000: 0f8a 803f 0b3d 803f e09a 803f 8949 803f
00000010: 236b 803f 7c40 803f 77ea 7f3f 141e 803f
00000020: 29f4 7f3f 4e1e 803f 0d21 803f b3fc 7f3f
00000030: 4913 803f 3a1b 803f b31b 803f 6cfd 7f3f
00000040: 6722 803f 64e2 7f3f 51fe 7f3f 73a1 813f
00000050: 829e 803f d030 803f fb40 803f b180 803f
00000060: 3d15 803f 280e 803f 3135 803f d032 803f
00000070: 911b 803f e035 803f 8c52 803f 0d58 803f
00000080: 4048 803f 5734 803f bff1 7f3f 261a 803f
00000090: 6337 803f d947 803f abf5 7f3f 410a 803f
000000a0: 1210 803f 55f4 7f3f fa1a 803f 2007 803f
000000b0: 5cef 7f3f b270 803f 2a32 803f c718 803f
000000c0: 512a 803f 0c19 803f 11b7 803f db1a 803f
000000d0: 582a 803f 892c 803f 5401 803f 3e3c 803f
000000e0: 2c46 803f 8345 803f 4522 803f bb07 803f
000000f0: 5934 803f ad25 803f 7efd 7f3f e013 803f
00000100: b25d 803f db0f 803f 5d56 803f f646 803f
00000110: c116 803f 88a4 803f bd22 803f b327 803f
00000120: b825 803f 9b47 803f fe0e 803f 5c3e 803f
00000130: 821c 803f f24a 803f 802b 803f 9f00 803f
00000140: f441 803f dc1c 803f 823c 803f 393d 803f
00000150: 1d46 803f 5622 803f 31f3 7f3f fb91 803f
00000160: 3b00 803f 2f06 803f 1302 803f 5355 803f
00000170: da8e 803f 4a76 803f 4209 803f 1819 803f
00000180: 9f24 803f ea31 803f 397d 803f 7165 803f
00000190: 8610 803f bc08 803f 886a 803f 8e1d 803f
000001a0: 4b16 803f b810 803f 7626 803f 4b34 803f
000001b0: 5315 803f f420 803f d32e 803f 2525 803f
000001c0: 5f4b 803f 7028 803f 9485 803f fb08 803f
000001d0: cc75 803f e128 803f 4053 803f 676b 803f
000001e0: 2e41 803f 58fa 7f3f 9c0f 813f 8c27 803f
000001f0: 0dd7 7f3f fcfd 7f3f e41f 803f 6829 803f
1.0042132 1.0018629 1.0047264 1.0022441 1.0032696 1.0019679 0.9996714 1.0009179
0.99981934 1.0009248 1.0010086 0.99994963 1.0005885 1.0008309 1.0008453 0.99996066
1.0010499 0.9995482 0.9999743 1.0127395 1.0048373 1.0014896 1.001983 1.0039274
1.0006481 1.000432 1.0016233 1.0015507 1.0008413 1.0016441 1.0025191 1.0026871
1.0022049 1.0015973 0.9997825 1.000798 1.0016903 1.0021926 0.99984235 1.0003129
1.0004904 0.99982196 1.0008233 1.0002174 0.9997461 1.0034392 1.0015309 1.0007561
1.0012914 1.0007644 1.0055867 1.0008196 1.0012922 1.0013591 1.0000405 1.0018384
1.0021415 1.0021213 1.0010458 1.0002359 1.0015975 1.0011498 0.99996173 1.0006065
1.0028594 1.0004839 1.0026356 1.0021656 1.0006944 1.0050211 1.0010601 1.0012115
1.0011511 1.0021852 1.0004575 1.001903 1.00087 1.0022871 1.0013275 1.000019
1.0020127 1.0008807 1.0018466 1.0018684 1.0021397 1.0010478 0.99980456 1.004455
1.000007 1.0001887 1.0000633 1.0026039 1.0043595 1.0036099 1.0002825 1.0007658
1.0011176 1.0015233 1.0038215 1.0030957 1.0005043 1.0002666 1.0032511 1.0009019
1.0006803 1.0005102 1.0011737 1.0015959 1.0006508 1.0010056 1.001429 1.0011336
1.0023001 1.001234 1.0040765 1.0002741 1.0035949 1.0012475 1.0025406 1.0032777
1.0019891 0.9999137 1.0082889 1.0012069 0.99937516 0.99996924 1.0009732 1.0012636

conv_layer_4.1.bias f4 [128]
00000000: e9d0 5e3b 3880 3b3b b112 8c3b 67ce 443b
00000010: 3c4b 7e3b e69b d43a d99f 82ba aa1a 5b3a
00000020: 8cf1 a9b9 caaa 203a ffcc 823a 6401 13b8
00000030: d2e2 8639 d626 dfb9 cd05 e13a 0899 1d3a
00000040: d27e b33a 0c65 d4b9 a709 2339 66bc 103b
00000050: 99e8 2d3b f97f fa3a ae78 173b 5258 663b
00000060: 45d3 cb3a 9ee0 d839 e21e fc3a 52fc 323b
00000070: c958 2f3a 1c74 463b f1ca af3a 0ca0 193b
00000080: 1a39 e839 bfc5 bd3a 2c99 a439 ab26 9339
00000090: deb3 423b 8112 383b 17c2 eab9 5399 473a
000000a0: cb74 373a 7137 71b9 0f64 e13a ff13 ff38
000000b0: 6648 b5b9 758c d23a 10ad c53a b971 813a
000000c0: 2b8e 9f3a b353 493a c900 bd3b 7241 5b3a
000000d0: 5cc6 253b 1bec cf3a 788e 6dba 9339 fd3a
000000e0: 1846 603a 1eff e43a 77e3 b83a f092 2ab8
000000f0: 1eb2 223b b335 c23a 8f02 5cb7 2bf8 113a
00000100: 8ac9 b53a 1cd0 143a 798a 2d3b da54 183b
00000110: a710 b43a 2ecd 053b 8d2e b63a a0c4 063b
00000120: 928f fb3a b3f8 b53a 7563 e939 e282 023b
00000130: 002e 983a 62be a53a 918c 773a 5ffa 0c39
00000140: 31ae bd3a b407 9b3a 2b15 713a 674d 6c3a
00000150: 75a3 1a3b 4fdd a53a b9ca d3b9 cbcb 043b
00000160: 0120 58ba af99 183a 8462 3a3a 4146 0f3b
00000170: 6d17 803b e54b 5f3b 998b 873a bfe8 a43a
00000180: 423e 173b 9a31 e53a 1f5c 733b 1758 653b
00000190: 87fb 593a 9c54 cc39 f0c8 273b 421f 813a
000001a0: 96f5 873a 7218 323a 2283 da3a c316 df3a
000001b0: 1962 e43a 466d 693a c88b 323b 86b4 f53a
000001c0: ab88 2b3b bf19 f63a fa45 3d3b cf4c 0d3b
000001d0: 3f96 df3a d6a9 0f3b 3f43 403b 82cd 413b
000001e0: 8abc 2d3b 716f b8b9 5598 033b 9fbf 96b8
000001f0: 4e31 8bb9 c43f e039 99f3 b53a 10f0 e83a
0.0033999032 0.002861036 0.004274689 0.0030030252 0.0038802167 0.0016220778 -0.0009965851 0.000835816
-0.00032414158 0.0006128965 0.0009979306 -3.5048826e-05 0.00025727466 -0.0004256281 0.0017167866 0.0006011878
0.0013694412 -0.00040511077 0.00015548487 0.002208495 0.0026536344 0.0019111625 0.0023112702 0.0035147858
0.0015550634 0.00041366083 0.0019235278 0.002731104 0.000668895 0.003028161 0.0013411922 0.0023441343
0.00044293032 0.0014478489 0.0003139464 0.00028066835 0.002970926 0.00280872 -0.00044776566 0.00076140946
0.00069982995 -0.00023004205 0.0017195957 0.00012163072 -0.0003457695 0.0016063588 0.0015081484 0.0009875811
0.0012173107 0.00076800137 0.005767916 0.0008363939 0.0025295233 0.0015863212 -0.0009062062 0.0019319527
0.00085553667 0.001747105 0.0014105876 -4.0668005e-05 0.0024825404 0.0014817029 -1.3113618e-05 0.0005568291
0.0013869267 0.00056767627 0.0026480241 0.0023243935 0.0013737873 0.0020416486 0.0013899371 0.0020563975
0.0019192568 0.0013883322 0.00044515324 0.0019914438 0.0011610389 0.001264524 0.0009443248 0.00013444711
0.0014471469 0.0011827857 0.00091965747 0.00090142194 0.0023595963 0.0012654456 -0.00040396096 0.0020263072
-0.0008244515 0.00058212405 0.0007110017 0.0021861943 0.0039090426 0.0034072336 0.0010341286 0.0012581571
0.002307788 0.0017486096 0.0037133766 0.0034995133 0.00083153736 0.0003897295 0.0025601946 0.0009851234
0.0010372873 0.0006793804 0.0016671161 0.0017020333 0.0017424255 0.00089045276 0.002724396 0.0018745817
0.002617399 0.0018775983 0.002888082 0.0021560674 0.0017058327 0.0021921298 0.0029336957 0.0029571955
0.0026510083 -0.00035178245 0.002007981 -7.1882496e-05 -0.0002654888 0.00042772118 0.0013881802 0.001777174
